data.pth (torch, 14826 bytes, 6 tensors)

l1.weight f4 [8, 210]
000000 4c c1 fa 3e e8 16 f2 3e 3e a4 ba 3e 97 fe 25 bf
       0.489756 0.472831 0.36453432 -0.648416
000010 18 05 c6 bd fb 8e 4a bf fa 09 20 40 8b 73 40 be
       -0.0966894 -0.7912442 2.500609 -0.18794076
000020 5e a4 72 bd 7a 72 d5 be c0 f6 e6 be 5d d9 20 3f
       -0.059238784 -0.416889 -0.4511013 0.6283167
000030 db 21 02 bf 81 16 06 3e 97 a0 32 bf 84 d0 bd 3f
       -0.5083291 0.13094522 -0.6977629 1.4829259
000040 5d 4f f8 3e 04 b8 11 bf 58 59 62 40 8b 62 b3 be
       0.4849805 -0.5692141 3.536703 -0.3503612
000050 c5 5e 7f bf 95 ef 11 3f b1 5e b4 3f 46 3e a3 3f
       -0.9975398 0.570062 1.4091398 1.2753379
000060 83 1c 10 bf 4a e4 a0 bf 4b 6a 76 3e 06 d2 80 bf
       -0.56293505 -1.2569668 0.24063985 -1.0064094
000070 77 6c d8 be 4a 23 8e bd 42 49 1b 3c 57 30 2d 3f
       -0.42270252 -0.069403246 0.009477915 0.67651886
000080 47 7e 11 bf 13 09 a7 3f 00 d9 7d 3f da 9a 59 3e
       -0.5683331 1.3049644 0.9915924 0.21250477
000090 c5 fa 88 bb b6 e7 59 bf 24 88 80 bf ed 18 22 bf
       -0.0041802847 -0.8511919 -1.0041547 -0.63319284
0000a0 d3 58 9c bf 78 7e 9a bf 0d 4a 42 40 92 36 06 3f
       -1.2214607 -1.2069845 3.0357697 0.5242702
0000b0 9b 67 9c be 2c 46 c1 bf 81 84 c2 3d ec fe 99 3f
       -0.30547795 -1.509954 0.09497929 1.2030921
0000c0 4c 22 a7 3f 66 ba 8e 3f 24 0e 5c 3f 6a c2 b8 3f
       1.3057342 1.1150634 0.85959077 1.443433
0000d0 6d 68 ae bc 10 5e 3a c0 75 75 50 3e 6f 80 a3 3f
       -0.021290028 -2.9119911 0.20357306 1.277357
0000e0 d5 e6 81 bf 8d b5 28 40 36 66 a7 bf 7c 2a 8c be
       -1.0148569 2.636081 -1.3078067 -0.27376163
0000f0 61 21 0e 40 40 36 25 3e d7 2c 88 3d 6a 17 86 3f
       2.2207873 0.16133976 0.066491775 1.0475895
000100 f4 23 97 3f 94 35 bc 3f cf 8a bd 3f 05 f9 ec 3f
       1.1807847 1.4703851 1.4807986 1.8513495
000110 71 c5 0e c0 ea 0c 39 bf 93 7c 19 3f 93 49 00 3e
       -2.2308009 -0.7228533 0.5995571 0.12528066
000120 47 8b 2e 3f 3e db 97 3f 6c d3 80 bf 08 84 e6 be
       0.6818127 1.1863782 -1.0064521 -0.45022607
000130 72 64 21 bf 8e a4 1e bd ff 41 c4 bf bd f9 ce 3f
       -0.6304389 -0.03873115 -1.533264 1.6169964
000140 8b 33 c2 3f 4e 31 80 3f 83 3d 96 3f 19 be 6d bf
       1.517198 1.0015047 1.1737522 -0.9286819
000150 a9 07 82 3f fc 19 38 3f 83 35 8d bd d1 3d 66 40
       1.0158588 0.7191465 -0.06894972 3.597523
000160 f0 dd 0a 3f c5 f1 29 bf bc fc 15 3e 1f 1d 2c bc
       0.542449 -0.66384536 0.14647192 -0.01050499
000170 d9 e9 bd 3f 93 cd 34 c0 5d 57 8e bd 6f dc 2f 3f
       1.483699 -2.8250473 -0.06950257 0.6869573
000180 97 e0 4a 3f 82 08 0a 3f 0d 38 12 c0 04 61 06 3f
       0.79248947 0.5391923 -2.284671 0.52491784
000190 72 c3 c7 bf 1e 3a 55 3f 04 8d 8d bd 93 c0 c0 3f
       -1.560652 0.83291805 -0.06911662 1.5058769
0001a0 da c1 92 be 4f ef 8b bf a4 e9 4a bf f8 85 86 bf
       -0.28663522 -1.0932406 -0.7926276 -1.0509634
0001b0 1b 66 8b bf 27 24 e3 bd a3 14 ed be cc e7 10 3f
       -1.0890535 -0.1109088 -0.46304807 0.56603694
0001c0 91 48 5c bf 03 22 20 3f 74 d6 50 be ac 97 ed 3e
       -0.8604823 0.625519 -0.20394307 0.4640478
0001d0 8b f0 9a be b9 11 5e 40 33 bb d6 3e a6 fb 0d 3f
       -0.30261645 3.4698317 0.41939697 0.5546211
0001e0 f0 13 0a c0 f6 a7 00 be ea 01 86 bf 8e 34 32 3e
       -2.157467 -0.12564072 -1.0469334 0.1740286
0001f0 f7 5c 36 be b9 5b d3 3f 0b 27 5d 3b bf 0f 73 bf
       -0.17808901 1.6512367 0.0033745195 -0.949459
000200 e2 b3 a0 3f 8f 45 07 bf 5c fa 9d bd 65 31 08 be
       1.2554896 -0.52840513 -0.07713768 -0.13300093
000210 be b7 0c bf 51 47 4a be 43 50 1a 40 a8 c3 bd 3f
       -0.5496787 -0.19753768 2.4111488 1.4825335
000220 54 52 bf 3f eb 12 c2 3f 17 97 50 be e8 3f 91 be
       1.4947 1.5162023 -0.20370136 -0.2836907
000230 01 31 0b bf 37 4f 7f bf 6b 0b 0e bf 20 07 f2 be
       -0.5437165 -0.9973025 -0.5548617 -0.4727106
000240 bb b6 10 c0 f3 8f 9f 3d a5 49 72 3f a1 31 33 bc
       -2.261153 0.07791128 0.9464362 -0.010937125
000250 f8 e2 ff 3f 4c d0 22 3f 13 b6 92 bf be 8b 88 bf
       1.999114 0.63599086 -1.1461815 -1.0667646
000260 0b eb 72 bd 22 86 80 bf a7 e4 7f 3d 55 32 01 40
       -0.059306186 -1.0040934 0.06247392 2.018697
000270 21 1e 13 40 0d b7 e4 3f f1 b2 36 3f 50 78 c9 3e
       2.298714 1.7868363 0.7136679 0.39349604
000280 e5 e0 16 bf 6f fc 83 bf 9d ac 2e bf e3 06 49 bf
       -0.5893691 -1.0311412 -0.68232137 -0.78526133
000290 8d 8b 1b 40 6d 0d 21 40 9a 87 9d 3f 7e ac 19 bd
       2.4303925 2.5164444 1.2307007 -0.037518017
0002a0 27 a9 3b 3f 8b 4c 52 bd 6c 63 34 3e fb e0 9d bf
       0.7330498 -0.05134253 0.17616051 -1.2334284
0002b0 74 38 80 bf c3 99 e2 be d5 1a b9 3f 66 86 65 c0
       -1.0017228 -0.44257936 1.4461313 -3.586328
0002c0 1b 7d 1c 40 99 f1 84 be 75 41 33 bf a8 bd 91 be
       2.4451358 -0.25965574 -0.70021755 -0.2846501
0002d0 ad 7d 37 bf de ec 92 3e f5 ac 63 bf 55 d1 8e be
       -0.7167614 0.2869634 -0.88935786 -0.27894083
0002e0 a9 5e 1c bd 9a 72 43 3f 0e 6a fd 3f fc 3a 32 3e
       -0.038176212 0.76346743 1.979799 0.17405313
0002f0 92 b4 e8 3e ad 93 8d 3f 58 1e 06 bf 5e 26 45 3d
       0.45450264 1.1060692 -0.5239005 0.048132293
000300 48 5f 26 3f a1 5a dc be dd f4 82 3f aa a1 28 be
       0.6498914 -0.43037894 1.0230976 -0.1646792
000310 fe 3c af be 20 3a ae 3a 22 a0 57 3f f3 39 35 3f
       -0.3422622 0.0013292469 0.8422872 0.7079155
000320 21 e2 5d be e7 99 9a 3e e1 d6 c3 be 02 28 91 3e
       -0.21668293 0.30195543 -0.38249877 0.28350836
000330 3d e4 41 3f c8 cc db 3e 61 28 67 3e 5c 77 2e 3f
       0.7573889 0.42929673 0.22573997 0.6815088
000340 cb 78 f2 3e be dd e1 be 2f c4 9b 3f 7c f0 37 be
       0.47357783 -0.44114488 1.2169245 -0.17962831
000350 b7 90 25 be dc 30 7b bf 01 64 52 be c0 76 07 bf
       -0.16168486 -0.9812143 -0.20545961 -0.52915573
000360 44 cd 79 3f 1d ec bb 3e 24 7d b0 be e0 f7 ba be
       0.97578835 0.36703578 -0.34470475 -0.3651724
000370 0f 53 a7 bf 20 ce 5e bf c9 cc b3 bf 60 9d 5b bf
       -1.3072222 -0.8703327 -1.404687 -0.8578701
000380 89 ee bc be 29 25 54 3e 55 88 9d 3f 01 c5 3c bf
       -0.36900738 0.207173 1.230723 -0.73738104
000390 0f 98 19 3e bb 6b 3b 3f d4 30 bd 3f 18 37 13 40
       0.14999412 0.7321126 1.4780526 2.3002377
0003a0 1d c6 1e 3e 3c 7c 64 be 87 a5 ae 3e a4 1d 83 bf
       0.15505262 -0.22313017 0.34110662 -1.0243421
0003b0 7c 49 17 3f c1 41 81 be c2 70 53 40 8e 35 2c 40
       0.59096503 -0.2524548 3.3037572 2.6907687
0003c0 07 d7 55 3e 0d ad 79 40 45 4c 56 be ca 6f b4 3e
       0.20882808 3.9011872 -0.20927532 0.35241538
0003d0 4b 60 41 c0 6c cc 03 bf b5 4c bb be 5b de 6c bf
       -3.0215023 -0.514838 -0.3658196 -0.9252679
0003e0 66 0f 2b 40 87 4e ad be dc c2 77 40 5a 44 ad 3f
       2.6728148 -0.33848974 3.8712683 1.3536484
0003f0 f6 db 41 c0 0c 67 41 be 1e f7 7c bf 95 1f 55 bf
       -3.0290504 -0.18886966 -0.9881457 -0.83251315

l1.bias f4 [8]
000000 00 15 80 3f e9 15 83 3f c1 8d 84 3f 0e 91 6a 3f
       1.0006409 1.0241061 1.035576 0.91627586
000010 f8 03 41 3f 38 0a 69 3f 30 d5 9e 3f 40 4e 26 3f
       0.7539668 0.9103122 1.240881 0.6496315

l2.weight f4 [8, 8]
000000 24 7e 15 c0 c5 18 80 3e 13 15 53 3f fd af c1 3f
       -2.335824 0.25018898 0.8245403 1.5131832
000010 c5 96 ec bf 4a e7 c5 3f 2c 30 ac 3f 68 98 10 bf
       -1.8483511 1.5461209 1.3452201 -0.56482553
000020 6c 07 38 40 43 24 12 40 fa 5a 8a 40 c3 d5 53 be
       2.875453 2.2834632 4.3236055 -0.20687012
000030 75 67 df bf 71 d2 02 3f 85 29 82 3f e0 65 cd 3f
       -1.7453448 0.5110236 1.0168921 1.6046715
000040 59 67 c0 bf dd 43 0f be ab 6b 9d bf ee 39 34 40
       -1.5031539 -0.13990732 -1.2298483 2.8160357
000050 b4 bb 73 3f 5c ee 44 3f c7 86 e1 3f 43 a1 80 be
       0.9520829 0.7692621 1.7619256 -0.25123033
000060 2f 98 d1 3f cd b1 3d c0 b6 12 eb be 64 7b 85 bf
       1.6374568 -2.963977 -0.45912713 -1.0428281
000070 15 55 19 40 8e 2e d6 3f f6 dd 2a 40 ad 1a d2 bf
       2.395818 1.6732957 2.6697974 -1.6414391
000080 a4 b4 57 be 53 02 e5 bf 45 06 95 3f b5 7a 08 bf
       -0.21065003 -1.7891334 1.1642538 -0.53312236
000090 cc 5f 08 3f 4d c9 60 3f 1a 5b d9 3e b8 c8 8c bf
       0.53271174 0.8780716 0.42452317 -1.0998755
0000a0 c5 97 76 be ba e2 ce bd 63 72 d0 be 78 c3 fa bd
       -0.24081333 -0.101018384 -0.4071227 -0.12244314
0000b0 dd 75 7b be 32 78 2c 3e c4 44 a8 be 8c c0 1a 3d
       -0.2455668 0.16842726 -0.32864964 0.037781283
0000c0 61 27 3f 3f 37 08 52 40 67 c0 64 3f 84 db 14 c0
       0.7466946 3.2817514 0.8935608 -2.3258982
0000d0 39 47 1e 40 e9 c1 0e 40 cc 9c 02 3f 8b 82 c4 bf
       2.473097 2.2305853 0.51020503 -1.5352339
0000e0 57 c2 25 bf 28 d1 52 3f 98 19 47 3d f3 64 c6 3e
       -0.64749664 0.823504 0.048608392 0.38748893
0000f0 18 5e 51 3f bb f1 17 40 79 62 9d bf 34 90 65 40
       0.817842 2.374129 -1.2295676 3.5869265

l2.bias f4 [8]
000000 5f c5 b1 be 4e 04 a9 3e 1d a2 50 3f 5b 0a 70 3f
       -0.34720895 0.33011097 0.81497365 0.937658
000010 e4 04 e7 3c d3 22 d1 be ae 7a 7e be 3b 20 c6 be
       0.028200574 -0.4084688 -0.24851486 -0.38696465

l3.weight f4 [50, 8]
000000 64 1d f9 c0 c8 8c b9 c0 db f4 ef 3e 5c c1 ed 3e
       -7.7848377 -5.798435 0.46866497 0.46436584
000010 52 28 57 bf 8c e8 87 be b2 28 96 3f cb 66 d9 c0
       -0.840459 -0.26544607 1.1731169 -6.793798
000020 50 4a 91 c0 c9 3c 47 3f 9d f1 b3 c0 b9 98 0d c0
       -4.5403214 0.77827126 -5.623244 -2.2124465
000030 64 7a 28 c0 10 75 7b 3d 99 09 40 3f 37 2d d9 c0
       -2.6324701 0.061390936 0.75014645 -6.7867694
000040 c8 35 68 bf 36 86 88 bd 1c 6b e9 be 27 6f 76 bd
       -0.90707064 -0.06666224 -0.4558953 -0.060164597
000050 f7 5f b4 bf 0b 25 3a 3e f7 9b f1 be 60 38 3b 3f
       -1.4091786 0.18178193 -0.47189304 0.73132896
000060 dd 2d 10 be d1 52 04 c0 1f 8d f3 3e 4d 11 17 3f
       -0.14079995 -2.0675547 0.47568604 0.59010774
000070 e3 98 af bb c9 21 09 be 9c 76 b1 be d3 0a e1 bf
       -0.0053588017 -0.13391794 -0.34660804 -1.7581428
000080 83 d9 bb c0 65 a5 bf bf 60 37 53 c0 da 01 1d 3f
       -5.8703017 -1.497235 -3.3002548 0.6133095
000090 48 52 2a c0 fa 56 9d be fc 78 b7 3f 24 28 a0 bf
       -2.661272 -0.3073042 1.4333797 -1.251225
0000a0 02 16 6e c0 a4 fc 97 c0 bc 24 b2 bf ef 93 52 3f
       -3.7200933 -4.74959 -1.391746 0.8225698
0000b0 7c 57 b6 3f aa a4 56 3e ba 5a bd 3f 43 aa bd c0
       1.4245448 0.20961252 1.4793313 -5.927034
0000c0 8f cc c9 bf cf 72 8b bf 1c e0 99 bd eb 61 27 bf
       -1.5765551 -1.0894412 -0.075134486 -0.65383786
0000d0 b6 4f 8a bf b5 61 a8 3e 6a 00 70 3f 70 54 d8 be
       -1.0805576 0.32887045 0.9375063 -0.4225192
0000e0 1e 66 4c c0 82 1d 95 3f 17 c3 86 c0 97 36 2d 3e
       -3.1937327 1.164963 -4.2113147 0.16915356
0000f0 dd 84 0f 3f 83 0c 32 be a3 11 69 c0 52 ad 50 c0
       0.5606211 -0.17387585 -3.6417015 -3.2605786
000100 03 31 2b 3f b5 2c 91 bf 7f 02 1f bf ae b9 f1 3e
       0.6687166 -1.1341769 -0.62113184 0.47211975
000110 16 ef ae c0 ca 0b 45 3e d6 6b a3 bf 76 c2 55 3f
       -5.4666853 0.19242778 -1.2767284 0.8349985
000120 de 7e ee 3c f7 ca 43 bf a9 f4 19 c0 78 77 99 bf
       0.02911323 -0.76481575 -2.4055579 -1.1989584
000130 60 39 10 3f 5d e5 10 3c a3 b5 e8 be 10 8b d3 3f
       0.5633755 0.008843747 -0.45451078 1.6526814
000140 a0 9b f9 c0 7f 19 72 3d 3d aa cb bf 1d 2a 72 3f
       -7.800247 0.059106346 -1.5911328 0.9459551
000150 8d 7f ec bf c4 5c a5 bd 20 f3 b2 bf ef 28 bc c0
       -1.8476425 -0.08074334 -1.3980446 -5.879997
000160 aa 1b a8 c0 48 26 fd bd 9e 46 6f c0 3b ed 4e c0
       -5.253377 -0.12360817 -3.7386851 -3.2332294
000170 46 05 d1 be 22 1e 35 3e 25 fd d2 3f ca 7c cf bf
       -0.40824336 0.17687276 1.6483504 -1.6209958
000180 47 b0 27 3f 5f 01 ca bf 10 a7 11 bf ab 44 e9 be
       0.6550335 -1.5781668 -0.5689554 -0.45560202
000190 ce b9 07 40 ff 93 b0 3e 70 06 b5 be 38 dd e6 3e
       2.1207156 0.34487912 -0.35356474 0.45090652
0001a0 ac 0b a9 c0 f5 cc 6c c0 27 87 91 bf ef 28 ab 3e
       -5.282675 -3.7000096 -1.136937 0.33429667
0001b0 f5 bd 37 3f 87 5f c3 bb d2 72 d7 be 6e 6c 8c 3f
       0.71774226 -0.0059623155 -0.42079788 1.097059
0001c0 06 32 34 bd af 56 e2 3e 10 8a f8 c0 0b ef 99 bf
       -0.04399302 0.4420676 -7.7668533 -1.2026075
0001d0 d3 a4 32 bf 02 de 19 3e 71 a3 1c 3f 5d 4a 59 c0
       -0.6978275 0.15026096 0.6118689 -3.3951638
0001e0 e1 db 87 3f d7 35 ae 3e 79 58 a8 be 4c 32 c0 bf
       1.0613977 0.34025452 -0.3288 -1.5015349
0001f0 a9 f7 68 3f cc 25 bc bd 51 20 2e c0 05 e6 bd c0
       0.910029 -0.09186897 -2.7207224 -5.9343286
000200 da de 93 3e a8 1e 48 3f 4e b8 31 c0 ac c4 aa be
       0.2888096 0.7817178 -2.776874 -0.33353174
000210 41 1c b9 3f 55 3a 99 3e 0d b1 9e bf f3 b7 88 c0
       1.4461747 0.29927316 -1.2397782 -4.2724547
000220 9a 92 a1 c0 d5 74 0a 3f a3 1e 3a c0 82 0b 6f be
       -5.0491457 0.5408452 -2.90812 -0.23344234
000230 be 6d 4b c0 f2 30 5a 3e 83 27 d2 3e d3 71 7f c0
       -3.1785731 0.21307734 0.4104577 -3.9913223
000240 78 ca 0f 3e fe 6f 1e bf 7b 27 dc bf ce 33 00 3f
       0.1404208 -0.61889637 -1.7199548 0.5007905
000250 e5 0f 20 40 c6 b9 4d 3e 5e 0d d8 be af f4 c0 bf
       2.5009701 0.20090398 -0.42197698 -1.5074672
000260 8c 00 03 3f d2 7e 93 3e 5c 7d 91 bf c2 91 10 3f
       0.5117271 0.28807694 -1.1366382 0.5647241
000270 1c 29 98 3f c0 74 57 3e 0a ab fa c0 71 0b 7c bf
       1.1887546 0.2104063 -7.833379 -0.9845496
000280 0b 10 ce c0 27 d1 50 3e ab 82 b1 3f 0b e4 b6 bf
       -6.4394584 0.20392285 1.3868002 -1.4288343
000290 6a d0 cc c0 dd c6 86 be 32 c7 ab bf 76 d2 28 bf
       -6.400441 -0.26323596 -1.3420165 -0.6594614
0002a0 12 f4 06 3f 55 ed f9 3d 4a 43 6b be 1a 30 e2 c0
       0.5271617 0.122034706 -0.22974887 -7.068372
0002b0 b1 0d b6 3f 42 74 e3 3c 0c 38 cf bf df 99 fe 3e
       1.4222928 0.027765397 -1.6188979 0.4972677
0002c0 45 36 9d 3c a6 3e f4 be a4 2e b6 3e 43 0a bc 3e
       0.019190917 -0.47704047 0.3558246 0.3672658
0002d0 c2 b7 00 bf de f9 55 3e d2 bd 93 be cd fc f9 bf
       -0.5028039 0.20896098 -0.2885576 -1.9530274
0002e0 44 d0 80 3f c3 9a f2 be dc 14 75 bf 9f 00 50 bf
       1.0063558 -0.473837 -0.95734954 -0.8125095
0002f0 c5 88 f1 3f 1c 65 d6 bd bb 30 8d bf 6f ae b6 be
       1.8869864 -0.10468504 -1.1030496 -0.35679957
000300 e3 10 c6 c0 09 a8 6e bf 52 7e e1 bf eb 80 89 3f
       -6.1895614 -0.9322515 -1.7616675 1.0742468
000310 29 ad 91 c0 3a 03 b1 bd f5 35 ed be 4a 37 94 3f
       -4.5523877 -0.086431935 -0.46330228 1.1579373
000320 1b 11 f9 3e 29 2a 35 bf 1b d6 84 3f 87 7c b1 c0
       0.48645863 -0.70767456 1.037784 -5.546451
000330 15 65 eb bf a6 b2 37 3e 25 46 c6 bf 7a f7 b5 c0
       -1.8390223 0.17939243 -1.5490156 -5.6864595
000340 bf 78 02 c0 37 d2 70 3f 02 9e 9f c0 3c 82 5a c0
       -2.0386198 0.9407076 -4.988038 -3.4141989
000350 d1 ee 36 c0 4b 0b 9e 3e 25 13 ef c0 5a 0f 32 3f
       -2.8583262 0.3086799 -7.471087 0.69554675
000360 1c b1 38 3e a5 b6 27 c0 42 19 76 3f 9a 5b bb 3e
       0.18036312 -2.6205227 0.9613229 0.36593324
000370 fe 57 96 c0 9c 8c 80 3d 25 e7 fc c0 d1 60 f1 c0
       -4.698241 0.06276819 -7.903216 -7.5430684
000380 6d 8e 85 3f a1 bf e4 3e d7 4d da 3d 2d cc 81 c0
       1.043409 0.4467745 0.10659378 -4.056174
000390 81 c6 7c c0 0d 62 19 3e 99 ae 90 c0 74 cf 58 c0
       -3.9496157 0.1497881 -4.521313 -3.387662
0003a0 c0 40 22 c0 b3 52 b2 c0 93 e7 fe 3e 72 70 6e c0
       -2.535202 -5.572595 0.49786052 -3.725613
0003b0 f5 2c 16 c0 f4 40 09 be b8 1b 56 c0 28 de ad 3f
       -2.346494 -0.13403684 -3.3454418 1.3583422
0003c0 0e d0 f2 3e ad 0f b5 be 23 a8 8a 3e bd e0 3c 3f
       0.47424358 -0.35363522 0.27081403 0.73780423
0003d0 22 4b d4 c0 c1 e4 96 bd 94 cf 0a c1 e8 b5 04 3f
       -6.6341715 -0.0736785 -8.675678 0.51840067
0003e0 d6 cf 56 c0 ed a9 d4 bd ff b6 d6 bf 92 7a 99 3f
       -3.3564353 -0.10383973 -1.6774596 1.199053
0003f0 8c 86 1b c0 ac 23 ff bd 55 44 a5 c0 25 26 b5 3f
       -2.430087 -0.12457976 -5.1645913 1.4152266

l3.bias f4 [50]
000000 1b 42 ab bf 6b eb d8 3d ca cb a0 be 16 e9 82 3e
       -1.3379549 0.105917774 -0.3140548 0.25568455
000010 5c ef 94 3e 6d 0d 55 bf b4 03 e0 bf d9 e1 2c bf
       0.29088867 -0.8322361 -1.750113 -0.67532116
000020 12 c7 1f c0 1a 8c ed bf 12 33 92 bf 35 36 a9 bf
       -2.4965253 -1.8558381 -1.1421835 -1.3219668
000030 af 73 af bf 9a 83 87 3f 19 19 23 c0 b9 e8 06 3f
       -1.3707179 1.0587037 -2.5484068 0.52698857
000040 7c 7f a9 3d e6 3b 14 3f 1b 67 41 c0 6b 60 55 bf
       0.08276269 0.579039 -3.021918 -0.8335025
000050 a8 ed 46 be 98 91 26 be 51 b6 cb 3e 5f 87 2e c0
       -0.19426596 -0.16266477 0.39787534 -2.7270124
000060 af f2 13 bf 21 2f 15 3f a5 63 66 be 56 12 a6 be
       -0.5779218 0.5827504 -0.22498949 -0.32435864
000070 10 1b cc bf 2d bb 82 3e e6 30 aa bd d9 ec 70 3f
       -1.5945759 0.2553343 -0.08310108 0.941114
000080 be 82 40 3e 1d 57 09 c0 60 7c 0c 3f 0e 68 11 c0
       0.18799874 -2.145942 0.5487728 -2.271976
000090 97 f4 5f bf 9c c5 e0 bd 3b 81 47 bf 15 1b 28 c0
       -0.8748259 -0.10975191 -0.77931565 -2.626653
0000a0 69 5e 64 c0 5d fe 42 bf e5 c6 e6 3d 03 3a 8b bf
       -3.5682623 -0.7616938 0.11268405 -1.0877079
0000b0 bd 8f 88 3e 4c f4 38 be 45 87 ab bf 44 df 0a 3e
       0.26672164 -0.18061942 -1.3400656 0.13561732
0000c0 40 51 07 3f 08 38 2d c0
       0.5285835 -2.7065449
